__________________________________________________________________________________________________
Layer (type)                    Output Shape         Param #     Connected to
==================================================================================================
Input_1 (InputLayer)            (None, 224, 224, 3)  0
__________________________________________________________________________________________________
Convolution2D_236 (Conv2D)      (None, 112, 112, 32) 896         Input_1[0][0]
__________________________________________________________________________________________________
Convolution2D_235 (Conv2D)      (None, 112, 112, 32) 9248        Convolution2D_236[0][0]
__________________________________________________________________________________________________
Convolution2D_237 (Conv2D)      (None, 110, 110, 64) 18496       Convolution2D_235[0][0]
__________________________________________________________________________________________________
MaxPooling2D_69 (MaxPooling2D)  (None, 55, 55, 64)   0           Convolution2D_237[0][0]
__________________________________________________________________________________________________
Convolution2D_238 (Conv2D)      (None, 53, 53, 80)   46160       MaxPooling2D_69[0][0]
__________________________________________________________________________________________________
Convolution2D_239 (Conv2D)      (None, 26, 26, 192)  138432      Convolution2D_238[0][0]
__________________________________________________________________________________________________
Convolution2D_1 (Conv2D)        (None, 26, 26, 32)   6176        Convolution2D_239[0][0]
__________________________________________________________________________________________________
Convolution2D_4 (Conv2D)        (None, 26, 26, 64)   6208        Convolution2D_1[0][0]
__________________________________________________________________________________________________
Convolution2D_2 (Conv2D)        (None, 26, 26, 32)   6176        Convolution2D_239[0][0]
__________________________________________________________________________________________________
Convolution2D_6 (Conv2D)        (None, 26, 26, 64)   12352       Convolution2D_4[0][0]
__________________________________________________________________________________________________
MaxPooling2D_7 (MaxPooling2D)   (None, 13, 13, 192)  0           Convolution2D_239[0][0]
__________________________________________________________________________________________________
Convolution2D_8 (Conv2D)        (None, 13, 26, 64)   6208        Convolution2D_2[0][0]
__________________________________________________________________________________________________
Convolution2D_5 (Conv2D)        (None, 13, 26, 64)   12352       Convolution2D_6[0][0]
__________________________________________________________________________________________________
Convolution2D_10 (Conv2D)       (None, 13, 13, 64)   12352       MaxPooling2D_7[0][0]
__________________________________________________________________________________________________
Convolution2D_9 (Conv2D)        (None, 13, 13, 64)   12352       Convolution2D_8[0][0]            
__________________________________________________________________________________________________
Convolution2D_7 (Conv2D)        (None, 13, 13, 64)   12352       Convolution2D_5[0][0]            
__________________________________________________________________________________________________
Convolution2D_3 (Conv2D)        (None, 13, 13, 32)   6176        Convolution2D_239[0][0]          
__________________________________________________________________________________________________
merge_1 (Concatenate)           (None, 13, 13, 224)  0           Convolution2D_10[0][0]           
                                                                 Convolution2D_9[0][0]            
                                                                 Convolution2D_7[0][0]            
                                                                 Convolution2D_3[0][0]            
__________________________________________________________________________________________________
Convolution2D_121 (Conv2D)      (None, 13, 13, 128)  28800       merge_1[0][0]                    
__________________________________________________________________________________________________
Convolution2D_122 (Conv2D)      (None, 13, 13, 128)  49280       Convolution2D_121[0][0]          
__________________________________________________________________________________________________
Convolution2D_126 (Conv2D)      (None, 13, 13, 128)  28800       merge_1[0][0]                    
__________________________________________________________________________________________________
Convolution2D_123 (Conv2D)      (None, 13, 13, 128)  49280       Convolution2D_122[0][0]          
__________________________________________________________________________________________________
Convolution2D_127 (Conv2D)      (None, 7, 13, 128)   49280       Convolution2D_126[0][0]          
__________________________________________________________________________________________________
MaxPooling2D_15 (MaxPooling2D)  (None, 7, 7, 224)    0           merge_1[0][0]                    
__________________________________________________________________________________________________
Convolution2D_124 (Conv2D)      (None, 7, 13, 128)   49280       Convolution2D_123[0][0]          
__________________________________________________________________________________________________
Convolution2D_128 (Conv2D)      (None, 7, 7, 128)    49280       Convolution2D_127[0][0]          
__________________________________________________________________________________________________
Convolution2D_129 (Conv2D)      (None, 7, 7, 128)    28800       MaxPooling2D_15[0][0]            
__________________________________________________________________________________________________
Convolution2D_125 (Conv2D)      (None, 7, 7, 128)    49280       Convolution2D_124[0][0]          
__________________________________________________________________________________________________
Convolution2D_130 (Conv2D)      (None, 7, 7, 128)    28800       merge_1[0][0]                    
__________________________________________________________________________________________________
merge_10 (Concatenate)          (None, 7, 7, 512)    0           Convolution2D_128[0][0]          
                                                                 Convolution2D_129[0][0]          
                                                                 Convolution2D_125[0][0]          
                                                                 Convolution2D_130[0][0]          
__________________________________________________________________________________________________
MaxPooling2D_70 (MaxPooling2D)  (None, 1, 1, 512)    0           merge_10[0][0]                   
__________________________________________________________________________________________________
Flatten_5 (Flatten)             (None, 512)          0           MaxPooling2D_70[0][0]            
__________________________________________________________________________________________________
Dense_14 (Dense)                (None, 5)            2565        Flatten_5[0][0]                  
__________________________________________________________________________________________________
Dropout_1 (Dropout)             (None, 5)            0           Dense_14[0][0]                   
__________________________________________________________________________________________________
Dense_2 (Dense)                 (None, 5)            30          Dropout_1[0][0]                  
==================================================================================================
Total params: 719,411
Trainable params: 719,411
Non-trainable params: 0
__________________________________________________________________________________________________
